media/TrainData.pth (torch, 15783 bytes, 6 tensors)

l1.weight f4 [8, 240]
0	0xbf27a2f9	-0.6548305
1	0x3f9cc37e	1.224716
2	0x40138b38	2.3053722
3	0x3fd4384b	1.6579679
4	0xbff9a926	-1.9504745
5	0x403eccc0	2.981247
6	0x404390ae	3.0557055
7	0x419f0612	19.877964
8	0x4133e03e	11.242247
9	0x408b1574	4.346369
10	0x409e27cc	4.942358
11	0x402926ca	2.6429925
12	0x41821ccb	16.26406
13	0x41144bff	9.268554
14	0x4124c1b4	10.297291
15	0xbeaa883c	-0.33307064
16	0x41a020d5	20.016031
17	0x3da69b34	0.081350714
18	0x4081c9aa	4.055867
19	0x408c470c	4.3836727
20	0xbfe28595	-1.7697016
21	0xbf36b56d	-0.71370584
22	0x4025e17b	2.5918872
23	0x4107de1d	8.491727
24	0x4036c234	2.8556032
25	0x3fcd6eaf	1.6049403
26	0x4133b190	11.23085
27	0xbf56fb3b	-0.839771
28	0x3fae8425	1.3634077
29	0x40256627	2.58436
30	0x3e9e57e2	0.30926424
31	0xbf53a633	-0.82675475
32	0xbf37a245	-0.7173198
33	0x41817ccf	16.185942
34	0x40a08006	5.015628
35	0xbef2fd8b	-0.47459063
36	0x40a1d1f1	5.0568776
37	0x40e5208c	7.160223
38	0x40ab905b	5.3613715
39	0x416dee69	14.870706
40	0x40893c57	4.2886157
41	0x409e8f78	4.9550133
42	0x41a9b61e	21.213924
43	0x40fab79c	7.8349133
44	0xc0533e29	-3.300669
45	0xbe0645e2	-0.13112596
46	0x4104688c	8.275524
47	0x419fc177	19.969465
48	0x3f30a1fb	0.6899716
49	0xbf1a0c72	-0.6017524
50	0xbfc4d96c	-1.5378852
51	0x40b1cd06	5.5562773
52	0x4061c485	3.5276196
53	0x416f9f98	14.976463
54	0x4050934d	3.2589905
55	0x41af06e3	21.878363
56	0x3f999227	1.1997727
57	0x4107a509	8.477792
58	0x40d4a3d6	6.6449995
59	0x3ef2ded8	0.4743564
60	0x419fdbcd	19.982325
61	0x40d651b0	6.6974716
62	0x4001aea3	2.026284
63	0x3f490ea4	0.78537965
64	0x3f84aa15	1.0364405
65	0x408676f7	4.202022
66	0x40a51cf5	5.159785
67	0x41c2b17a	24.336658
68	0x4011fc1b	2.2810123
69	0x4031e0b5	2.77934
70	0x41afaa56	21.958172
71	0x4064b85d	3.5737526
72	0x40dfa201	6.988526
73	0x40eb4343	7.3519607
74	0x40713e0c	3.769412
75	0x41ada2c4	21.704475
76	0x4007359a	2.1126466
77	0x40b5fea4	5.687334
78	0xbf6c986d	-0.92420083
79	0xbfca6983	-1.581345
80	0x3fe5df95	1.7958857
81	0x407cca32	3.949841
82	0xbff38e88	-1.9027872
83	0xbf391840	-0.7230263
84	0x405729af	3.3619192
85	0x417610df	15.379119
86	0x3fdae091	1.7099782
87	0x3f2aed3d	0.66768247
88	0x3f16a49c	0.58844924
89	0x4077e03f	3.873062
90	0x40f90e55	7.7829995
91	0x3f5f8f96	0.8732847
92	0x412db718	10.857201
93	0x40e8a40e	7.270026
94	0x3f59fb36	0.8514894
95	0x3d18fb38	0.037348956
96	0xbf066aad	-0.52506524
97	0xbe300dfa	-0.17192832
98	0xbe96037f	-0.29299542
99	0x4049251d	3.1428902
100	0xbe7530f7	-0.2394446
101	0x4039533c	2.8957052
102	0x40a0452b	5.0084434
103	0x406cfc7f	3.7029111
104	0x3fcf20df	1.6181906
105	0x4002b784	2.042451
106	0x4031659c	2.7718267
107	0x408157c2	4.0419626
108	0x40bd2baa	5.91158
109	0x3f6cf6a4	0.92563844
110	0xbe98253d	-0.2971591
111	0xbed7ed86	-0.42173404
112	0x4034fcc9	2.8279288
113	0x4031ee61	2.7801745
114	0x41180f8a	9.503794
115	0x4017c4cc	2.3713865
116	0x405289a0	3.28965
117	0x40e3ae35	7.1150155
118	0x41a16a25	20.176828
119	0x3f4b2f87	0.79369396
120	0x4066dd3a	3.6072526
121	0x4131ae2d	11.105023
122	0x3fd1f5b5	1.6403109
123	0x4042de8c	3.0448332
124	0xbffe2e99	-1.985797
125	0x3eea37c9	0.45745686
126	0x3adc99c4	0.0016830494
127	0x40ac38be	5.3819265
128	0x40350607	2.8284929
129	0x402446f2	2.5668302
130	0xbf8f4648	-1.1193323
131	0x3ecefd9f	0.40427873
132	0xbfd9e265	-1.7022215
133	0x408d0787	4.407169
134	0x413846ce	11.517286
135	0xbfabef12	-1.3432333
136	0x40a38b4b	5.1107535
137	0xc06f9a7b	-3.7438037
138	0xbf12f55b	-0.5740563
139	0x40279e0a	2.619021
140	0x3fd6b776	1.6774738
141	0x41cf980f	25.949247
142	0x408ed2bc	4.4632244
143	0x40851733	4.159082
144	0x409bf53a	4.873685
145	0xbe0d31fb	-0.13788597
146	0x40caa7e5	6.332995
147	0x3fe07f22	1.7538798
148	0xbf85e0e7	-1.045926
149	0x41cf3517	25.900923
150	0x4125f067	10.371192
151	0x411bbfcf	9.734328
152	0x403df856	2.9682822
153	0x40217d11	2.5232584
154	0x3fdf594f	1.744913
155	0xbfe17f6d	-1.7617012
156	0x42153aed	37.307545
157	0x40a596c6	5.174655
158	0x41cfc397	25.970503
159	0x407815bb	3.8763263
160	0x414a80cd	12.6564455
161	0x403a89e0	2.9146652
162	0x3fbff2f5	1.499602
163	0x41bb9f88	23.452896
164	0x3eec803f	0.46191594
165	0x41a06b72	20.052464
166	0xbf69fb68	-0.9139924
167	0x41af340a	21.90041
168	0x4132284f	11.134841
169	0x412babd4	10.72945
170	0x3f724921	0.94642836
171	0xc075a6d3	-3.8383071
172	0x4042c0ce	3.0430179
173	0x41816340	16.173462
174	0x40f77801	7.733399
175	0xbfa650af	-1.2993373
176	0x40a681f6	5.2033644
177	0x40f95a8d	7.7923036
178	0x418c56fa	17.542469
179	0x3f7205f4	0.94540334
180	0x3f2bbf21	0.67088515
181	0xbecd6b18	-0.4012077
182	0x4104775f	8.279143
183	0xbffbf5be	-1.968437
184	0x3f74546d	0.95441324
185	0x40f23686	7.5691557
186	0x40802b66	4.0052977
187	0x40a58887	5.172916
188	0x41ab46fc	21.40966
189	0xbff9c8e8	-1.9514437
190	0x414d1d69	12.81968
191	0x40c7ce31	6.24392
192	0x404a400e	3.1601596
193	0x407b4c67	3.9265382
194	0x3fa24990	1.26787
195	0xbfd9aa3e	-1.7005079
196	0x408128bb	4.036222
197	0x405005cd	3.250354
198	0x409424f7	4.6295123
199	0x41489ea6	12.538733
200	0x40c8c63d	6.274199
201	0x40546ec3	3.3192604
202	0xbe52583b	-0.2054147
203	0x40b55733	5.6668944
204	0x40c4cbd4	6.1498814
205	0xc047fbf0	-3.124752
206	0x3f9779ba	1.1834023
207	0x40e349d9	7.1027646
208	0x40d5f960	6.6866913
209	0x4084a41c	4.145033
210	0x4007521f	2.1143873
211	0x41add24c	21.727684
212	0x41c16d20	24.178284
213	0xbffc2fc4	-1.9702077
214	0x41429cdf	12.163299
215	0xbea8b6bf	-0.32951924
216	0x40afa6ec	5.489126
217	0x3eb022c3	0.3440152
218	0x414439ef	12.264144
219	0x3fefe0fb	1.8740534
220	0x407912d8	3.8917751
221	0x41b28347	22.3141
222	0x40a1baa3	5.054033
223	0xbd95097a	-0.07277198
224	0x40a22f65	5.0682855
225	0xbf2af98f	-0.66787046
226	0x3fdb0343	1.711037
227	0x400ff68a	2.2494226
228	0x3fbed3b4	1.4908357
229	0x40840180	4.125183
230	0xbfadd197	-1.3579587
231	0x3f3d6aae	0.73990905
232	0x417a2fd3	15.636676
233	0x40c9ea3f	6.3098445
234	0xbfb57c94	-1.4178643
235	0x401ba858	2.43215
236	0x401a4302	2.4103398
237	0x402c16c3	2.6888893
238	0x4001d2fb	2.0285022
239	0xc06cd7a7	-3.7006624
240	0x40c3cc13	6.1186614
241	0x420c8089	35.125523
242	0x41db5432	27.416111
243	0x41be47a8	23.784988
244	0x41dde93a	27.73888
245	0x425cfed9	55.248875
246	0x4292b1b9	73.347115
247	0x4128f6df	10.560271
248	0x425359f1	52.837833
249	0x4207de0b	33.96684
250	0x41c11292	24.134068
251	0x41af5377	21.915754
252	0x41f2a1fa	30.32909
253	0x4289c71e	68.8889
254	0x421d5113	39.329174
255	0x423fc8a1	47.945927

l1.bias f4 [8]
0	0x3fec2c1c	1.8450961
1	0xc0e402de	-7.12535
2	0x3ff7a118	1.9346037
3	0x3f84fdcb	1.0389951
4	0x3f735a16	0.95059335
5	0x3fc31218	1.5239897
6	0x4047041f	3.1096265
7	0x3f814ff3	1.0102524

l2.weight f4 [8, 8]
0	0xbf225038	-0.63403654
1	0x3f337658	0.70102453
2	0xbf0b6062	-0.54443944
3	0xc08c8f29	-4.3924756
4	0x3fad0693	1.3517631
5	0xbd4b033a	-0.049563624
6	0x3fd1e265	1.6397215
7	0x3fd475ab	1.659841
8	0xbd0aeecb	-0.033919137
9	0x3f3e3480	0.7429886
10	0x4028a841	2.6352694
11	0xbee06888	-0.4382975
12	0x3e92ad2c	0.28647745
13	0x3e54a4f8	0.20766056
14	0xbf5eefda	-0.87084734
15	0xbf64c567	-0.8936371
16	0xbf11ad30	-0.5690489
17	0x3fa93117	1.3218106
18	0xc0123014	-2.2841845
19	0x3dc7f430	0.09763372
20	0x3fd184aa	1.6368611
21	0xc0945fb5	-4.636683
22	0xc0b82c10	-5.7553787
23	0x3e6286b4	0.22121698
24	0x3f456b62	0.7711698
25	0x3d821b66	0.06352882
26	0x40a734e5	5.225207
27	0xbfea3896	-1.8298519
28	0xbf989e79	-1.1923362
29	0xc080fdcd	-4.0309815
30	0xbfaabba7	-1.3338517
31	0x3ee63aab	0.44966635
32	0x4067f5d2	3.6243787
33	0x3fead663	1.8346676
34	0xbe63c559	-0.22243251
35	0x404b10b9	3.1728957
36	0xbee5ffd6	-0.4492175
37	0xc0a98983	-5.298036
38	0xbfefef34	-1.8744874
39	0xbf7ab38e	-0.9793023
40	0xc08a8602	-4.3288584
41	0x3dbc8743	0.092054866
42	0x3f0aef10	0.5427103
43	0x3ea88e57	0.32921097
44	0x405cf29a	3.4523072
45	0x3ff53369	1.9156314
46	0xc01b5632	-2.427136
47	0x40359f54	2.8378496
48	0xbfcf43cd	-1.6192566
49	0x3f333df8	0.7001643
50	0xc001f27d	-2.0304253
51	0x3f22cead	0.6359661
52	0xc0b124d3	-5.535745
53	0x3f39eb55	0.72624713
54	0x3f0ddc46	0.55414236
55	0xbec037c8	-0.37542558
56	0x3dcf6456	0.101265594
57	0x3f5eb005	0.86987334
58	0xbf8db978	-1.1072226
59	0xbf39db1e	-0.7259997
60	0x3d62a5fd	0.05533408
61	0x408df234	4.435816
62	0xc025435c	-2.5822363
63	0xbf53911c	-0.82643294

l2.bias f4 [8]
0	0xc005c8c4	-2.0903788
1	0xbece31aa	-0.40272266
2	0xbf09a85c	-0.5377252
3	0xbfbdc32d	-1.4825188
4	0x3f4e5fcd	0.8061493
5	0xc00eb3d3	-2.2297256
6	0x3f843cea	1.033109
7	0xc01146fd	-2.2699578

l3.weight f4 [46, 8]
0	0xc093272c	-4.5985317
1	0xc0b48c44	-5.6421223
2	0xc06b7f5b	-3.6796482
3	0xc04df5cb	-3.218127
4	0xc0fd2200	-7.9104004
5	0xc08176a6	-4.0457335
6	0xc09888e7	-4.7667117
7	0xc0b12a61	-5.536423
8	0xc0ba474c	-5.821203
9	0x3f49b8ee	0.78797805
10	0xc02e3fd8	-2.7226467
11	0xc0a7b081	-5.240296
12	0xc0ee8ee4	-7.4549427
13	0xc09dc5b5	-4.930384
14	0xc083dfa3	-4.1210494
15	0xc07bc98e	-3.934177
16	0xc07768b7	-3.8657663
17	0xc069d177	-3.6534097
18	0xc05fa8fb	-3.4946887
19	0xbfb116f7	-1.3835133
20	0xc0c9ab56	-6.302165
21	0xc0e49688	-7.1433754
22	0xbf60e252	-0.8784534
23	0xc0e3e966	-7.122241
24	0xc1099d8f	-8.600966
25	0x3f96a184	1.1768041
26	0xbf91d546	-1.1393211
27	0xc0e08fa9	-7.0175366
28	0xc0e13e19	-7.0388303
29	0xc0b9ef59	-5.8104672
30	0xbf33cfcb	-0.7023894
31	0xc06f0ecf	-3.7352788
32	0xc3132bb4	-147.17072
33	0xc2ff16c4	-127.544464
34	0xc293b2e2	-73.84938
35	0xc2ccc615	-102.38688
36	0xc2f522f0	-122.56824
37	0xc0edcc6c	-7.431204
38	0xc20b1ab4	-34.776077
39	0x3fc09479	1.504531
40	0xc0399361	-2.8996203
41	0xc14ef08e	-12.933729
42	0xc077f93a	-3.8745866
43	0xbfb7b474	-1.4351945
44	0xc0d3cd82	-6.6188364
45	0xc0d572d7	-6.6702685
46	0xbfefed11	-1.8744222
47	0xc097976a	-4.737233
48	0xc08e548a	-4.4478197
49	0xc1561ce4	-13.382053
50	0xc076609e	-3.849647
51	0xc0cba084	-6.363344
52	0xc0f66f67	-7.701099
53	0xc08543d5	-4.1645303
54	0xbff78eb4	-1.9340425
55	0xc0e3481f	-7.102554
56	0xc027778f	-2.6166723
57	0xc3002bee	-128.1716
58	0xc1517ad1	-13.092484
59	0xc2a46f7a	-82.21773
60	0xc2c9935d	-100.78782
61	0x3fedff33	1.8593506
62	0xc286b2b2	-67.349014
63	0xc2939e5b	-73.80929
64	0xc30202fd	-130.01167
65	0x3e073e6a	0.13207403
66	0xc2ed74eb	-118.728355
67	0xc2f6ce88	-123.40338
68	0xc0bee407	-5.9653354
69	0xc1c0a140	-24.078735
70	0xc3075758	-135.34119
71	0xc118a1c9	-9.539498
72	0xc0bcd2c5	-5.9007287
73	0xbe5c84dc	-0.21535057
74	0xbf63556d	-0.88802224
75	0xc07f5c46	-3.990007
76	0xc0d68aad	-6.704428
77	0xc0e37f15	-7.109263
78	0xc0ef1d9f	-7.472366
79	0xc0892a12	-4.2863855
80	0xc056b79e	-3.354957
81	0xc00887cd	-2.1332886
82	0xc08e5d6d	-4.4489045
83	0x3f1421d2	0.57864106
84	0xc0fbd088	-7.8692055
85	0xc0ae8068	-5.4531746
86	0xc0288450	-2.6330757
87	0xc099a206	-4.8010283
88	0xc03f767e	-2.9916072
89	0xc082885d	-4.079146
90	0xc0008685	-2.0082104
91	0x3e7864c0	0.24257183
92	0xc0ce4ee8	-6.447132
93	0xc109c493	-8.610492
94	0xc15eb0a8	-13.918129
95	0xc109e58e	-8.618544
96	0xc290be83	-72.37209
97	0xc2a62cce	-83.08751
98	0xc20f8723	-35.88197
99	0xc2c90ca4	-100.52469
100	0xc004d463	-2.075463
101	0xc2e7136a	-115.53792
102	0xbde27338	-0.110571325
103	0xc225d4fc	-41.457993
104	0xc296128d	-75.03623
105	0xc1178f60	-9.472504
106	0xc2847056	-66.219406
107	0x40016915	2.0220387
108	0xc0ae5eeb	-5.4490867
109	0xc2e394de	-113.79076
110	0xc2d88470	-108.25867
111	0xc2cdbb68	-102.86603
112	0xc30f8f12	-143.55887
113	0xc2b71e32	-91.558975
114	0x401a1325	2.4074185
115	0xc2c5fe73	-98.99697
116	0x3ea304d2	0.31839615
117	0xc103b84d	-8.232495
118	0xc2d0e489	-104.44636
119	0xc280b138	-64.34613
120	0xc0983a78	-4.7571373
121	0xc070c01d	-3.7617257
122	0xc0b6f1a1	-5.7169957
123	0x3f1b23f6	0.6060175
124	0xc0e8add3	-7.271219
125	0xc08ec451	-4.4614644
126	0xbfd500af	-1.6640834
127	0xc137b877	-11.482535
128	0xc07aec54	-3.9206743
129	0x3e64df41	0.2235079
130	0xc024c6b4	-2.5746279
131	0xc00996f7	-2.1498392
132	0xc10de521	-8.86844
133	0xc09cd987	-4.9015536
134	0xc0badbac	-5.8393154
135	0xc06c9055	-3.6963093
136	0xc0ed60f6	-7.418086
137	0xbf135049	-0.5754438
138	0xc009f9bf	-2.1558683
139	0xbffd8113	-1.9805015
140	0xc0d5d279	-6.6819425
141	0xc0c13603	-6.037843
142	0xbfcce6fc	-1.6007991
143	0xc09903c9	-4.781712
144	0xc311cd0a	-145.80093
145	0xc2b7feb5	-91.997475
146	0x3f538bac	0.82635
147	0xc2b4f189	-90.47175
148	0x3eb9b3a0	0.36269855
149	0xc1039515	-8.223897
150	0xc2b7acf6	-91.837814
151	0xc283a4e0	-65.82202
152	0xc0945789	-4.6356854
153	0xbfb59f25	-1.4189192
154	0xc0460aa7	-3.0944002
155	0xc058f702	-3.3900762
156	0xc0f937ed	-7.788077
157	0xc093da23	-4.620378
158	0xc0c1049d	-6.031813
159	0xc0a366be	-5.106292
160	0xc0658c4f	-3.5866888
161	0xc112f780	-9.185425
162	0xc0b01429	-5.502461
163	0x3dccfe64	0.10009459
164	0xc1040b50	-8.252762
165	0xc0875136	-4.2286634
166	0xbf11a296	-0.5688871
167	0xc0b523f2	-5.660638
168	0xc067628a	-3.6153893
169	0xc08add6b	-4.3395286
170	0xc055319c	-3.331153
171	0xc0ce2c0e	-6.442878
172	0xc0e91837	-7.284206
173	0xc0a14516	-5.0396833
174	0xc118508c	-9.519665
175	0xc082f684	-4.0925922
176	0xc31008f5	-144.03499
177	0xbcf433e9	-0.029809909
178	0xc297fed3	-75.9977
179	0xc2f3deed	-121.9354
180	0xc2f54048	-122.62555
181	0xc1197be4	-9.592747
182	0xc2176d38	-37.85666
183	0x3fc05d83	1.5028538
184	0x3f6ca0a4	0.9243262
185	0xc2cb9efe	-101.81053
186	0xc237162a	-45.771645
187	0xc2c30150	-97.50256
188	0xc2c34ef7	-97.65423
189	0xc3169ddd	-150.61665
190	0xc22795c6	-41.896263
191	0xc23f1277	-47.768032
192	0xc07aceb1	-3.9188654
193	0xbf2d1daf	-0.6762342
194	0xc0ae99dc	-5.4562817
195	0xbfc0190f	-1.5007647
196	0xc0eb8d5e	-7.3610067
197	0xc08db91b	-4.428846
198	0xc1174051	-9.453202
199	0xc0afce1e	-5.493911
200	0xc09699c4	-4.70627
201	0xc0d725fb	-6.7233863
202	0xc0790de1	-3.891472
203	0xc0836303	-4.1058364
204	0xc0e07a28	-7.0149117
205	0xc08e68ff	-4.450317
206	0xc08892de	-4.267928
207	0xc09f1316	-4.97108
208	0x3f6b8370	0.9199743
209	0xc25c1c43	-55.0276
210	0xc1f37678	-30.432846
211	0xc2cdd035	-102.906654
212	0xbfde8182	-1.7383273
213	0xc3199985	-153.59969
214	0xbde20a23	-0.1103709
215	0xc2782f82	-62.046394
216	0xc054bcd1	-3.3240244
217	0xc17e6b4f	-15.901198
218	0xc0a9c627	-5.3054385
219	0xc04d67fd	-3.209472
220	0xc0d9e97f	-6.809753
221	0xc0922422	-4.5669107
222	0xc099a823	-4.8017745
223	0xc1971e7a	-18.889881
224	0xc2c2aaed	-97.33384
225	0xc10e1ff5	-8.882802
226	0xc2a12eca	-80.591385
227	0x400177de	2.022941
228	0xc0b00246	-5.5002775
229	0xc2a6b7a2	-83.35866
230	0xc2d31bb4	-105.55411
231	0xc2d0eca2	-104.46217
232	0xc09faf45	-4.990145
233	0xc04f20c7	-3.2363756
234	0xc02a56ac	-2.66154
235	0xc1152875	-9.322377
236	0xc0fb90ab	-7.8614097
237	0xc08cb40d	-4.396979
238	0xc086119f	-4.189651
239	0xc08998f7	-4.2999225
240	0xc0214cae	-2.5203052
241	0x3fb8d6ba	1.4440529
242	0xc005764a	-2.0853448
243	0x3fd65dc0	1.674736
244	0xc12a5e96	-10.648092
245	0xc0b82eea	-5.755727
246	0xc106cc53	-8.424884
247	0xc03a5284	-2.9112864
248	0xc0c28003	-6.0781264
249	0x3f5c1aa1	0.8597813
250	0xc07197fb	-3.7749012
251	0xbfab464e	-1.338083
252	0xc10913f7	-8.567374
253	0xc06b798a	-3.6792932
254	0xc0635666	-3.5521483
255	0xc0a43028	-5.1308784

l3.bias f4 [46]
0	0xc1a300a3	-20.37531
1	0xc1ac56b2	-21.542332
2	0xc19557ea	-18.667927
3	0xc1ac2d8f	-21.522245
4	0x3ca4d796	0.02012233
5	0xc1ad42e3	-21.65766
6	0xc1a284a8	-20.314774
7	0xbf2e914e	-0.6819047
8	0xbe8841c1	-0.26612666
9	0xc1a3e920	-20.48883
10	0xc1a5fcf8	-20.74852
11	0xc1a333e4	-20.400337
12	0xbebe5212	-0.3717199
13	0x408e286d	4.442435
14	0xbec90d75	-0.3926808
15	0xc1a4da1c	-20.606499
16	0xc1afd69b	-21.979788
17	0xc1a5b941	-20.715456
18	0xbf07ce2d	-0.53048974
19	0xc1a7e428	-20.986404
20	0xc1aeee54	-21.866371
21	0xc1a70f59	-20.882494
22	0x3c33304c	0.010936808
23	0xbec4224e	-0.38307422
24	0xc1ae182a	-21.761799
25	0xc1a7478a	-20.909931
26	0xbec1fb5f	-0.37887093
27	0xc1aba86e	-21.457241
28	0x40704db2	3.7547421
29	0xc1ab92ae	-21.44662
30	0xc1bfe263	-23.98554
31	0xc1b5da22	-22.73151
32	0xc1a31eac	-20.389977
33	0xc1a23673	-20.276587
34	0xc194a031	-18.578218
35	0xc1a88aea	-21.06783
36	0xc1a7c246	-20.96986
37	0xc19dd6a8	-19.729813
38	0xc1a6e259	-20.860521
39	0xc1adef00	-21.7417
40	0xbf2de0b4	-0.67920995
41	0xc1a005a8	-20.002762
42	0xc1a58b97	-20.69316
43	0xc19f26e9	-19.894
44	0xc19c79fb	-19.55956
45	0xc19718a0	-18.887024
